comet_ml is installed but `COMET_API_KEY` is not set.
Namespace(batch_size=8, device=0, dropout=0.5, early_stop=10, epochs=100, hidden_dim=100, lr=0.001, num_layers=1, seed=0, weight_decay=1e-06)
device :  cuda:0
train size : 7631 7631
dev size : 847 847
test size : 3000
Model(
  (sent_encoder): SentenceGRU(
    (gru): GRU(768, 100, batch_first=True, dropout=0.5, bidirectional=True)
    (linear1): Linear(in_features=200, out_features=100, bias=True)
    (linear2): Linear(in_features=200, out_features=100, bias=True)
    (dropout): Dropout(p=0.5, inplace=False)
    (attention): Attention(
      (linears): ModuleList(
        (0): Linear(in_features=200, out_features=200, bias=False)
        (1): Linear(in_features=200, out_features=1, bias=False)
      )
    )
  )
  (doc_embed): DocumentGRU(
    (gru): GRU(100, 100, dropout=0.5, bidirectional=True)
    (linear1): Linear(in_features=200, out_features=100, bias=True)
    (linear2): Linear(in_features=200, out_features=100, bias=True)
    (dropout): Dropout(p=0.5, inplace=False)
    (attention): Attention(
      (linears): ModuleList(
        (0): Linear(in_features=200, out_features=200, bias=False)
        (1): Linear(in_features=200, out_features=1, bias=False)
      )
    )
  )
  (classifier): Linear(in_features=100, out_features=2, bias=True)
  (sent_norm): BatchNorm1d(100, eps=1e-05, momentum=0.1, affine=True, track_running_stats=True)
  (doc_norm): BatchNorm1d(100, eps=1e-05, momentum=0.1, affine=True, track_running_stats=True)
)
Adam (
Parameter Group 0
    amsgrad: False
    betas: (0.9, 0.999)
    eps: 1e-08
    initial_lr: 0.001
    lr: 0.001
    weight_decay: 1e-06
)
accuracy train: 0.444110 val: 0.455726, max val: 0.455726
Epoch :  1 loss_accum training:  366.11905951052904 Time :  105
accuracy train: 0.870528 val: 0.848878, max val: 0.848878

Epoch :  2 loss_accum training:  314.53424865938723 Time :  201
…
/home/shamnast/.local/lib/python3.6/site-packages/torch/nn/modules/rnn.py:61: UserWarning: dropout option adds dropout after all but last recurrent layer, so non-zero dropout expects num_layers greater than 1, but got dropout=0.5 and num_layers=1
  "num_layers={}".format(dropout, num_layers))

output saved
comet_ml is installed but `COMET_API_KEY` is not set.
Namespace(batch_size=8, device=0, dropout=0.5, early_stop=10, epochs=100, hidden_dim=200, lr=0.001, num_layers=1, seed=0, weight_decay=1e-06)
device :  cuda:0
train size : 7631 7631
dev size : 847 847
test size : 3000
Model(
  (sent_encoder): SentenceGRU(
    (gru): GRU(768, 200, batch_first=True, dropout=0.5, bidirectional=True)
    (linear1): Linear(in_features=400, out_features=200, bias=True)
    (linear2): Linear(in_features=400, out_features=200, bias=True)
    (dropout): Dropout(p=0.5, inplace=False)
    (attention): Attention(
      (linears): ModuleList(
        (0): Linear(in_features=400, out_features=400, bias=False)
        (1): Linear(in_features=400, out_features=1, bias=False)
      )
    )
  )
  (doc_embed): DocumentGRU(
    (gru): GRU(200, 200, dropout=0.5, bidirectional=True)
    (linear1): Linear(in_features=400, out_features=200, bias=True)
    (linear2): Linear(in_features=400, out_features=200, bias=True)
    (dropout): Dropout(p=0.5, inplace=False)
    (attention): Attention(
      (linears): ModuleList(
        (0): Linear(in_features=400, out_features=400, bias=False)
        (1): Linear(in_features=400, out_features=1, bias=False)
      )
    )
  )
  (classifier): Linear(in_features=200, out_features=2, bias=True)
  (sent_norm): BatchNorm1d(200, eps=1e-05, momentum=0.1, affine=True, track_running_stats=True)
  (doc_norm): BatchNorm1d(200, eps=1e-05, momentum=0.1, affine=True, track_running_stats=True)
)
Adam (
Parameter Group 0
    amsgrad: False
    betas: (0.9, 0.999)
    eps: 1e-08
    initial_lr: 0.001
    lr: 0.001
    weight_decay: 1e-06
)
accuracy train: 0.441096 val: 0.456907, max val: 0.456907
Epoch :  1 loss_accum training:  374.4970943760127 Time :  107
accuracy train: 0.865548 val: 0.852420, max val: 0.852420

Epoch :  2 loss_accum training:  326.87082653306425 Time :  203
…
/home/shamnast/.local/lib/python3.6/site-packages/torch/nn/modules/rnn.py:61: UserWarning: dropout option adds dropout after all but last recurrent layer, so non-zero dropout expects num_layers greater than 1, but got dropout=0.5 and num_layers=1
  "num_layers={}".format(dropout, num_layers))

output saved
comet_ml is installed but `COMET_API_KEY` is not set.
Namespace(batch_size=8, device=0, dropout=0.5, early_stop=10, epochs=100, hidden_dim=400, lr=0.001, num_layers=1, seed=0, weight_decay=1e-06)
device :  cuda:0
train size : 7631 7631
dev size : 847 847
test size : 3000
Model(
  (sent_encoder): SentenceGRU(
    (gru): GRU(768, 400, batch_first=True, dropout=0.5, bidirectional=True)
    (linear1): Linear(in_features=800, out_features=400, bias=True)
    (linear2): Linear(in_features=800, out_features=400, bias=True)
    (dropout): Dropout(p=0.5, inplace=False)
    (attention): Attention(
      (linears): ModuleList(
        (0): Linear(in_features=800, out_features=800, bias=False)
        (1): Linear(in_features=800, out_features=1, bias=False)
      )
    )
  )
  (doc_embed): DocumentGRU(
    (gru): GRU(400, 400, dropout=0.5, bidirectional=True)
    (linear1): Linear(in_features=800, out_features=400, bias=True)
    (linear2): Linear(in_features=800, out_features=400, bias=True)
    (dropout): Dropout(p=0.5, inplace=False)
    (attention): Attention(
      (linears): ModuleList(
        (0): Linear(in_features=800, out_features=800, bias=False)
        (1): Linear(in_features=800, out_features=1, bias=False)
      )
    )
  )
  (classifier): Linear(in_features=400, out_features=2, bias=True)
  (sent_norm): BatchNorm1d(400, eps=1e-05, momentum=0.1, affine=True, track_running_stats=True)
  (doc_norm): BatchNorm1d(400, eps=1e-05, momentum=0.1, affine=True, track_running_stats=True)
)
Adam (
Parameter Group 0
    amsgrad: False
    betas: (0.9, 0.999)
    eps: 1e-08
    initial_lr: 0.001
    lr: 0.001
    weight_decay: 1e-06
)
/home/shamnast/.local/lib/python3.6/site-packages/torch/nn/modules/rnn.py:61: UserWarning: dropout option adds dropout after all but last recurrent layer, so non-zero dropout expects num_layers greater than 1, but got dropout=0.5 and num_layers=1
…
