comet_ml is installed but `COMET_API_KEY` is not set.
Namespace(batch_size=8, device=0, dropout=0.5, early_stop=10, epochs=100, hidden_dim=100, lr=0.001, num_layers=1, seed=0, weight_decay=1e-06)
device :  cuda:0
train size : 7631 7631
dev size : 847 847
test size : 3000
Model(
  (sent_encoder): SentenceGRU(
    (gru): GRU(768, 100, batch_first=True, dropout=0.5, bidirectional=True)
    (linear1): Linear(in_features=200, out_features=100, bias=True)
    (linear2): Linear(in_features=200, out_features=100, bias=True)
    (dropout): Dropout(p=0.5, inplace=False)
    (attention): Attention(
      (linears): ModuleList(
        (0): Linear(in_features=200, out_features=200, bias=False)
        (1): Linear(in_features=200, out_features=1, bias=False)
      )
    )
  )
  (doc_embed): DocumentGRU(
    (gru): GRU(100, 100, dropout=0.5, bidirectional=True)
    (linear1): Linear(in_features=200, out_features=100, bias=True)
    (linear2): Linear(in_features=200, out_features=100, bias=True)
    (dropout): Dropout(p=0.5, inplace=False)
    (attention): Attention(
      (linears): ModuleList(
        (0): Linear(in_features=200, out_features=200, bias=False)
        (1): Linear(in_features=200, out_features=1, bias=False)
      )
    )
  )
  (classifier): Linear(in_features=100, out_features=2, bias=True)
  (sent_norm): BatchNorm1d(100, eps=1e-05, momentum=0.1, affine=True, track_running_stats=True)
  (doc_norm): BatchNorm1d(100, eps=1e-05, momentum=0.1, affine=True, track_running_stats=True)
)
Adam (
Parameter Group 0
    amsgrad: False
    betas: (0.9, 0.999)
    eps: 1e-08
    initial_lr: 0.001
    lr: 0.001
    weight_decay: 1e-06
)
accuracy train: 0.468484 val: 0.458087, max val: 0.458087
Epoch :  1 loss_accum training:  388.7813869602978 Time :  106
accuracy train: 0.864500 val: 0.842975, max val: 0.842975

Epoch :  2 loss_accum training:  323.8389691449702 Time :  204
…
/home/shamnast/.local/lib/python3.6/site-packages/torch/nn/modules/rnn.py:61: UserWarning: dropout option adds dropout after all but last recurrent layer, so non-zero dropout expects num_layers greater than 1, but got dropout=0.5 and num_layers=1
  "num_layers={}".format(dropout, num_layers))

output saved
comet_ml is installed but `COMET_API_KEY` is not set.
Namespace(batch_size=8, device=0, dropout=0.5, early_stop=10, epochs=100, hidden_dim=50, lr=0.001, num_layers=1, seed=0, weight_decay=0.001)
device :  cuda:0
train size : 7631 7631
dev size : 847 847
test size : 3000
Model(
  (sent_encoder): SentenceGRU(
    (gru): GRU(768, 50, batch_first=True, dropout=0.5, bidirectional=True)
    (linear1): Linear(in_features=100, out_features=50, bias=True)
    (linear2): Linear(in_features=100, out_features=50, bias=True)
    (dropout): Dropout(p=0.5, inplace=False)
    (attention): Attention(
      (linears): ModuleList(
        (0): Linear(in_features=100, out_features=100, bias=False)
        (1): Linear(in_features=100, out_features=1, bias=False)
      )
    )
  )
  (doc_embed): DocumentGRU(
    (gru): GRU(50, 50, dropout=0.5, bidirectional=True)
    (linear1): Linear(in_features=100, out_features=50, bias=True)
    (linear2): Linear(in_features=100, out_features=50, bias=True)
    (dropout): Dropout(p=0.5, inplace=False)
    (attention): Attention(
      (linears): ModuleList(
        (0): Linear(in_features=100, out_features=100, bias=False)
        (1): Linear(in_features=100, out_features=1, bias=False)
      )
    )
  )
  (classifier): Linear(in_features=50, out_features=2, bias=True)
  (sent_norm): BatchNorm1d(50, eps=1e-05, momentum=0.1, affine=True, track_running_stats=True)
  (doc_norm): BatchNorm1d(50, eps=1e-05, momentum=0.1, affine=True, track_running_stats=True)
)
Adam (
Parameter Group 0
    amsgrad: False
    betas: (0.9, 0.999)
    eps: 1e-08
    initial_lr: 0.001
    lr: 0.001
    weight_decay: 0.001
)
accuracy train: 0.457214 val: 0.443920, max val: 0.443920
Epoch :  1 loss_accum training:  401.4425101801753 Time :  92
accuracy train: 0.863583 val: 0.848878, max val: 0.848878

Epoch :  2 loss_accum training:  335.0137653425336 Time :  190
…
