comet_ml is installed but `COMET_API_KEY` is not set.
Namespace(batch_size=8, device=0, dropout=0.5, early_stop=10, epochs=100, hidden_dim=50, lr=0.001, num_layers=1, seed=0, weight_decay=0.0001)
device :  cuda:0
train size : 7631 7631
dev size : 847 847
test size : 3000
Model(
  (sent_encoder): SentenceGRU(
    (gru): GRU(768, 50, batch_first=True, dropout=0.5, bidirectional=True)
    (linear1): Linear(in_features=100, out_features=50, bias=True)
    (linear2): Linear(in_features=100, out_features=50, bias=True)
    (dropout): Dropout(p=0.5, inplace=False)
    (attention): Attention(
      (linears): ModuleList(
        (0): Linear(in_features=100, out_features=100, bias=False)
        (1): Linear(in_features=100, out_features=1, bias=False)
      )
    )
  )
  (doc_embed): DocumentGRU(
    (gru): GRU(50, 50, dropout=0.5, bidirectional=True)
    (linear1): Linear(in_features=100, out_features=50, bias=True)
    (linear2): Linear(in_features=100, out_features=50, bias=True)
    (dropout): Dropout(p=0.5, inplace=False)
    (attention): Attention(
      (linears): ModuleList(
        (0): Linear(in_features=100, out_features=100, bias=False)
        (1): Linear(in_features=100, out_features=1, bias=False)
      )
    )
  )
  (classifier): Linear(in_features=50, out_features=2, bias=True)
  (sent_norm): BatchNorm1d(50, eps=1e-05, momentum=0.1, affine=True, track_running_stats=True)
  (doc_norm): BatchNorm1d(50, eps=1e-05, momentum=0.1, affine=True, track_running_stats=True)
)
Adam (
Parameter Group 0
    amsgrad: False
    betas: (0.9, 0.999)
    eps: 1e-08
    initial_lr: 0.001
    lr: 0.001
    weight_decay: 0.0001
)
accuracy train: 0.441882 val: 0.455726, max val: 0.455726
Epoch :  1 loss_accum training:  383.8664486501366 Time :  76
accuracy train: 0.866859 val: 0.851240, max val: 0.851240

Epoch :  2 loss_accum training:  312.69652727618814 Time :  146
…
