comet_ml is installed but `COMET_API_KEY` is not set.
Namespace(batch_size=8, device=0, dropout=0.5, early_stop=10, epochs=100, hidden_dim=100, lr=0.001, num_layers=1, seed=0, weight_decay=1e-06)
device :  cuda:0
train size : 7631 7631
dev size : 847 847
test size : 3000
Model(
  (sent_encoder): SentenceGRU(
    (gru): GRU(1024, 100, batch_first=True, dropout=0.5, bidirectional=True)
    (linear1): Linear(in_features=200, out_features=100, bias=True)
    (linear2): Linear(in_features=200, out_features=100, bias=True)
    (dropout): Dropout(p=0.5, inplace=False)
    (attention): Attention(
      (linears): ModuleList(
        (0): Linear(in_features=200, out_features=200, bias=False)
        (1): Linear(in_features=200, out_features=1, bias=False)
      )
    )
  )
  (doc_embed): DocumentGRU(
    (gru): GRU(100, 100, dropout=0.5, bidirectional=True)
    (linear1): Linear(in_features=200, out_features=100, bias=True)
    (linear2): Linear(in_features=200, out_features=100, bias=True)
    (dropout): Dropout(p=0.5, inplace=False)
    (attention): Attention(
      (linears): ModuleList(
        (0): Linear(in_features=200, out_features=200, bias=False)
        (1): Linear(in_features=200, out_features=1, bias=False)
      )
    )
  )
  (classifier): Linear(in_features=100, out_features=2, bias=True)
  (sent_norm): BatchNorm1d(100, eps=1e-05, momentum=0.1, affine=True, track_running_stats=True)
  (doc_norm): BatchNorm1d(100, eps=1e-05, momentum=0.1, affine=True, track_running_stats=True)
)
Adam (
Parameter Group 0
    amsgrad: False
    betas: (0.9, 0.999)
    eps: 1e-08
    initial_lr: 0.001
    lr: 0.001
    weight_decay: 1e-06
)
accuracy train: 0.556284 val: 0.557261, max val: 0.557261
Epoch :  1 loss_accum training:  391.2180591765791 Time :  117
accuracy train: 0.860569 val: 0.855962, max val: 0.855962

Epoch :  2 loss_accum training:  331.4442868027836 Time :  223
…
